…
    (1): ReLU()
    (2): Dropout(p=0.5, inplace=False)
    (3): Linear(in_features=1024, out_features=512, bias=True)
    (4): ReLU()
    (5): Dropout(p=0.5, inplace=False)
    (6): Linear(in_features=512, out_features=11, bias=True)
  )
)
2025-08-28 20:36:25,384 - FORWARD INFO:
Input:(1, 3, 128, 128)
==========================================================================================
Layer (type:depth-idx)                   Output Shape              Param #
==========================================================================================
BaseNet                                  [1, 11]                   --
├─Sequential: 1-1                        [1, 128, 8, 8]            --
│    └─Conv2d: 2-1                       [1, 64, 128, 128]         1,792
│    └─BatchNorm2d: 2-2                  [1, 64, 128, 128]         128
│    └─ReLU: 2-3                         [1, 64, 128, 128]         --
│    └─MaxPool2d: 2-4                    [1, 64, 64, 64]           --
│    └─Conv2d: 2-5                       [1, 128, 64, 64]          73,856
│    └─BatchNorm2d: 2-6                  [1, 128, 64, 64]          256
│    └─ReLU: 2-7                         [1, 128, 64, 64]          --
│    └─MaxPool2d: 2-8                    [1, 128, 32, 32]          --
│    └─Conv2d: 2-9                       [1, 256, 32, 32]          295,168
│    └─BatchNorm2d: 2-10                 [1, 256, 32, 32]          512
│    └─ReLU: 2-11                        [1, 256, 32, 32]          --
│    └─MaxPool2d: 2-12                   [1, 256, 16, 16]          --
│    └─Conv2d: 2-13                      [1, 128, 16, 16]          295,040
│    └─BatchNorm2d: 2-14                 [1, 128, 16, 16]          256
│    └─ReLU: 2-15                        [1, 128, 16, 16]          --
│    └─MaxPool2d: 2-16                   [1, 128, 8, 8]            --
├─Sequential: 1-2                        [1, 11]                   --
│    └─Linear: 2-17                      [1, 1024]                 8,389,632
│    └─ReLU: 2-18                        [1, 1024]                 --
│    └─Dropout: 2-19                     [1, 1024]                 --
│    └─Linear: 2-20                      [1, 512]                  524,800
│    └─ReLU: 2-21                        [1, 512]                  --
│    └─Dropout: 2-22                     [1, 512]                  --
│    └─Linear: 2-23                      [1, 11]                   5,643
==========================================================================================
Total params: 9,587,083
Trainable params: 9,587,083
Non-trainable params: 0
Total mult-adds (M): 718.58
==========================================================================================
Input size (MB): 0.20
Forward/backward pass size (MB): 29.90
Params size (MB): 38.35
Estimated Total Size (MB): 68.44
…
