…
    (dropout2): Dropout(p=0.1, inplace=False)
  )
  (pred_layer): Sequential(
    (0): Linear(in_features=80, out_features=80, bias=True)
    (1): ReLU()
    (2): Dropout(p=0.1, inplace=False)
    (3): Linear(in_features=80, out_features=600, bias=True)
  )
)
2025-08-31 10:15:31,571 - FORWARD INFO:
Input:(1, 400, 40)
==========================================================================================
Layer (type:depth-idx)                   Output Shape              Param #
==========================================================================================
├─Linear: 1-1                            [-1, 400, 80]             3,280
├─TransformerEncoderLayer: 1-2           [-1, 400, 80]             --
|    └─MultiheadAttention: 2-1           [-1, 400, 80]             --
|    └─Dropout: 2-2                      [-1, 400, 80]             --
|    └─LayerNorm: 2-3                    [-1, 400, 80]             160
|    └─Linear: 2-4                       [-1, 400, 256]            20,736
|    └─Dropout: 2-5                      [-1, 400, 256]            --
|    └─Linear: 2-6                       [-1, 400, 80]             20,560
|    └─Dropout: 2-7                      [-1, 400, 80]             --
|    └─LayerNorm: 2-8                    [-1, 400, 80]             160
├─Sequential: 1-3                        [-1, 600]                 --
|    └─Linear: 2-9                       [-1, 80]                  6,480
|    └─ReLU: 2-10                        [-1, 80]                  --
|    └─Dropout: 2-11                     [-1, 80]                  --
|    └─Linear: 2-12                      [-1, 600]                 48,600
==========================================================================================
Total params: 99,976
Trainable params: 99,976
Non-trainable params: 0
Total mult-adds (M): 0.25
==========================================================================================
Input size (MB): 0.06
Forward/backward pass size (MB): 1.76
Params size (MB): 0.38
Estimated Total Size (MB): 2.21
==========================================================================================
…
