2025-08-27 10:59:30,665 - DEVICE:
cuda
2025-08-27 10:59:30,665 - MODEL INFO:
Residual_Network(
  (cnn_layer1): Sequential(
    (0): CNN_Blcok(
      (block): Sequential(
        (0): Conv2d(3, 64, kernel_size=(3, 3), stride=(1, 1), padding=(1, 1))
        (1): BatchNorm2d(64, eps=1e-05, momentum=0.1, affine=True, track_running_stats=True)
      )
    )
  )
  (cnn_layer2): Sequential(
    (0): CNN_Blcok(
      (block): Sequential(
        (0): Conv2d(64, 64, kernel_size=(3, 3), stride=(1, 1), padding=(1, 1))
        (1): BatchNorm2d(64, eps=1e-05, momentum=0.1, affine=True, track_running_stats=True)
      )
    )
  )
  (cnn_layer3): Sequential(
    (0): CNN_Blcok(
      (block): Sequential(
        (0): Conv2d(64, 128, kernel_size=(3, 3), stride=(2, 2), padding=(1, 1))
        (1): BatchNorm2d(128, eps=1e-05, momentum=0.1, affine=True, track_running_stats=True)
      )
    )
  )
  (cnn_layer4): Sequential(
    (0): CNN_Blcok(
      (block): Sequential(
        (0): Conv2d(128, 128, kernel_size=(3, 3), stride=(1, 1), padding=(1, 1))
        (1): BatchNorm2d(128, eps=1e-05, momentum=0.1, affine=True, track_running_stats=True)
      )
    )
  )
  (cnn_layer5): Sequential(
    (0): CNN_Blcok(
      (block): Sequential(
        (0): Conv2d(128, 256, kernel_size=(3, 3), stride=(2, 2), padding=(1, 1))
        (1): BatchNorm2d(256, eps=1e-05, momentum=0.1, affine=True, track_running_stats=True)
      )
    )
  )
  (cnn_layer6): Sequential(
    (0): CNN_Blcok(
      (block): Sequential(
        (0): Conv2d(256, 256, kernel_size=(3, 3), stride=(1, 1), padding=(1, 1))
        (1): BatchNorm2d(256, eps=1e-05, momentum=0.1, affine=True, track_running_stats=True)
      )
    )
  )
  (fc_layer): Sequential(
    (0): Linear(in_features=262144, out_features=256, bias=True)
    (1): ReLU()
    (2): Linear(in_features=256, out_features=11, bias=True)
  )
  (relu): ReLU()
)
2025-08-27 10:59:30,674 - CONFIG INFO:
{   'batch_size': 64,
    'checkpoints_dir': './checkpoints/20250827_105835',
    'clip_flag': True,
    'data_dir': './data/food11',
    'early_stop': 100,
    'loggers_dir': './loggers/20250827_105835',
    'lr': 0.001,
    'n_epoch': 35,
    'num_workers': 0,
    'seed': 2555,
    'weight_decay': 0.0001}
